meinmodel.pt (torch, 105368 bytes, 8 tensors)

weight f4 [10, 1, 5, 5]
00000000: 940a 1cbf 8e13 59bf 9f91 82be 2e22 0bbe
00000010: edf1 1bbe 26b7 c63e cee2 22bd 569c 8dbe
00000020: fb0e 67be 2510 cfbc 597c 113e a340 04be
00000030: 2876 94be 828b 47be efc3 043c 7629 393e
00000040: 0f79 08bf cb37 9fbe c936 a03b 6b84 843c
00000050: 1619 263f cb69 20bf 81c4 6dbe cbbd 28be
00000060: 3407 adbd 43df 773e 384b e9be b938 04bf
00000070: a219 963d 59ad 58bd a4c7 5dbe 1138 2bbf
00000080: a6a8 60be d1ac 17bc 05c2 f6bd b364 1ebe
00000090: 876a eabd ca52 653f c98e 413e 9370 1fbf
000000a0: ee8d 803e 1ffb 323f 99bb c03d f686 45bf
000000b0: 8006 07bf 1d3a fbbe 188d 23bf d5d4 3cbe
000000c0: 2087 e8bd 79e1 ca3d 4e37 20be 9be9 3fbf
000000d0: 372c 0fbd 06ad 5fbe d771 6f3e 7c30 c9bd
000000e0: 626b bdbe 9e1d 06be c27e 40be ad1a 333f
000000f0: 7331 f53d eeac a2be be1f efbe 2369 61be
00000100: 0c36 823e 4cf6 6f3e ef0d 67be 25ce f4be
00000110: bd9e 5bbe 1a25 653d 649d 503e 50ac 72bd
00000120: 974c e7be 72f8 8abe ed12 d83e dfb9 47bf
00000130: 4595 0fbe 1103 213f 95dc ee3e 2820 103d
00000140: ad1a 69bf a8c5 86bf a6b4 6bbf 1020 5f3d
00000150: 7570 633e da00 a43e a3a8 5cbe 591d 15bf
00000160: 34d6 4cbf 28d9 68be 673c fb3e 616b fcbd
00000170: 4dd4 03be b8cf 64be f944 76bf 944d 3d3e
00000180: adea 273f 3603 a5bd 247f a83e 5587 023e
00000190: 2c77 73be 4279 20bd 06ce 143d 0cfd d5be
000001a0: d324 e13e 0890 78be 83b3 a73d 0e48 3cbd
000001b0: 7f78 b2be 6b5c 533d 47c5 67bc 12f1 b8be
000001c0: 655b e4be a1ee 85bf a98d 28bf 2a47 0f3d
000001d0: f7a7 15bf dce9 ce3c e48d 593d 253d fc3e
000001e0: 80e1 a63e d277 163f 3fa0 963e 400f 4e3e
000001f0: 5c1e 9c3e 4e18 663e 0232 8b3e a594 8abe
00000200: e9d3 7d3e 83d4 843f e748 1cbf 2bc8 a73e
00000210: 71f0 91bd c471 903e d2a8 9abe 9655 dfbe
00000220: 2946 5b3e c0d8 133d 41b4 dfbe a8eb a0bf
00000230: 005b b8be 58ec 3fbf 05e7 68bf 2fd0 c7be
00000240: 121a 36bb 5373 26be d8e3 c7be 65b1 9dbd
00000250: 76cb 303e b8d5 903c 36db ee3e 1010 47be
00000260: 9d47 a2be 161d f3be a7d5 f9be fe0e 8b3e
00000270: 1343 d43e 162e 4dbe 9377 f3be 4940 26be
00000280: de60 e63e 2732 c0bd 3e75 1bbf 8eb0 b7bd
00000290: ad9f cfbd 5dc1 38be d82c 15bf 8df7 b2be
000002a0: 96e1 013d 0efb 8abe 7fe7 23bf fa7b b3be
000002b0: 10f6 42be 5e23 2ebd 1b19 66bd bf6c d13d
000002c0: 506c 09be ba1e 833e 5d30 d1be 7dd3 aebe
000002d0: 51a4 323d fa3e d43d 69d2 d4be 4738 2ebf
000002e0: 6c7e 1fbf 5242 51bc dbd0 0abf c0fc 9fbe
000002f0: ab44 9dbe 6801 513d 23ca a5be b61d 41be
00000300: 4415 8b3e 88f8 9c3d bbd2 a33e 24ef 01bf
00000310: fa58 e73d 0360 fd3c 944c 60be 9f9d dd3e
00000320: 9dc4 24be e45c a3bd 196f 0c3d 68bb 633e
00000330: fee7 94be b79e c4be 2ad6 3cbe 11b3 e53e
00000340: 0264 fabd f355 5ebf c565 29bf 347b 09bf
00000350: 6874 0d3f a4fd 8c3e 78b7 f8ba 0865 ffbe
00000360: a292 35bf c659 8b3b 5847 e83e 4e84 c33d
00000370: fbed 9abd ecfc d3bd f50c 45bf b408 88be
00000380: cbc4 a53e 0dba b3be bab4 c4be eacd 49bf
00000390: 15be c1be 48af 6fbe 718f 35be f372 f6bd
000003a0: 6361 e63d cc1b a3bd 98d5 12bf f617 763d
000003b0: 0db2 a5be e2fc 063f 0014 043f 77c7 26be
000003c0: 899d e13e f9de 0ebf 317a 0bbd b9a5 593e
000003d0: cf95 7f3e 79e1 ef3e 4507 0cbf ccc1 21bf
000003e0: a402 803e fcfd aa3e
-0.6095364 -0.84795463 -0.25501725 -0.13587257 -0.15229006 0.38811606 -0.03976708 -0.27658337
-0.22564308 -0.025276253 0.14207591 -0.12915282 -0.28996396 -0.19486812 0.008103355 0.18082222
-0.5330972 -0.31097254 0.0048893434 0.016176423 0.6488203 -0.6266143 -0.23219492 -0.1647865
-0.084486395 0.24206261 -0.455652 -0.5164905 0.07329108 -0.052899692 -0.21658188 -0.66882426
-0.21939334 -0.009257511 -0.12048725 -0.15468101 -0.114461 0.8957945 0.18902124 -0.6228115
0.25108284 0.6991443 0.094107814 -0.7715906 -0.52744293 -0.49067774 -0.63887167 -0.18440564
-0.11353898 0.09906287 -0.15646097 -0.7496583 -0.034954276 -0.21843347 0.2338327 -0.09823701
-0.3699599 -0.13097236 -0.18798354 0.6996258 0.11972322 -0.3177256 -0.46703905 -0.22012763
0.2543186 0.23433799 -0.22563909 -0.47813526 -0.21447273 0.055943586 0.2037254 -0.05924636
-0.4517562 -0.27142674 0.4220194 -0.7801799 -0.14021786 0.62895304 0.46652666 0.035186917
-0.9105633 -1.052907 -0.9207252 0.054473937 0.22210868 0.320319 -0.21548705 -0.58247906
-0.8001435 -0.22739089 0.4906952 -0.123251684 -0.12873955 -0.22344863 -0.96198994 0.18486625
0.6559246 -0.08057253 0.329095 0.12746938 -0.23775929 -0.03917814 0.03632929 -0.41794622
0.43973407 -0.24273694 0.08188536 -0.045967154 -0.34857556 0.05160181 -0.014146156 -0.36121422
-0.44600978 -1.0463449 -0.65841156 0.034979977 -0.5845942 0.025257997 0.053113833 0.492654
0.32593918 0.5877658 0.29419133 0.20123005 0.30491912 0.22470209 0.2718659 -0.27066532
0.24787869 1.0377353 -0.6104874 0.32769904 -0.07125939 0.28211796 -0.30206925 -0.43619984
0.21413483 0.03609538 -0.4369221 -1.2571917 -0.36006927 -0.74970007 -0.9097751 -0.3902602
-0.0027786535 -0.1625493 -0.39041018 -0.07699851 0.17265114 0.017680034 0.4665162 -0.19439721
-0.31695262 -0.47483128 -0.48795816 0.27159876 0.41457424 -0.20037112 -0.47552165 -0.1623546
0.4499578 -0.09384566 -0.6072577 -0.08969222 -0.101378776 -0.18042512 -0.5827155 -0.3495449
0.031709276 -0.27144665 -0.6402511 -0.35055524 -0.19039178 -0.042514198 -0.056176286 0.1022582
-0.13420224 0.2560938 -0.4085721 -0.34145728 0.043613736 0.10363574 -0.4156678 -0.6805462
-0.6230228 -0.01277216 -0.5422494 -0.3124752 -0.30716452 0.05102673 -0.3238078 -0.1885899
0.27164662 0.07664591 0.31996712 -0.50755525 0.11296268 0.030929571 -0.21904212 0.43284318
-0.16090627 -0.07976702 0.03428564 0.22239459 -0.29083246 -0.3840234 -0.18441072 0.4486318
-0.12226106 -0.868499 -0.66170913 -0.5370362 0.55255747 0.27537262 -0.0018975576 -0.49881768
-0.7092687 0.004252645 0.4536693 0.095467195 -0.075649224 -0.103509754 -0.76972896 -0.2656914
0.32376704 -0.35102883 -0.38419133 -0.78829825 -0.37840334 -0.23406708 -0.177305 -0.120336436
0.11249044 -0.07964286 -0.5735717 0.060081445 -0.32362404 0.5272962 0.5159302 -0.16287027
0.44065502 -0.5580898 -0.034052078 0.21254624 0.24959491 0.4685171 -0.5469859 -0.63186336
0.25002015 0.333969

bias f4 [10]
00000000: 5e7c d7bf 12e4 efbf dddd 11c0 973a 07c0
00000010: 45f5 35c0 6630 01c0 a73b 1ac0 655b fabf
00000020: fae1 1cc0 e92f eebf
-1.6834829 -1.8741477 -2.2791665 -2.112951 -2.843095 -2.018579 -2.409891 -1.9559141
-2.4512925 -1.8608371

weight f4 [20, 10, 5, 5]
00000000: 1eac 8e3e 89d4 4c3e 5d73 963e 70cc 9e3d
00000010: cac2 473e 75c5 823e 2322 583c 6679 ce3d
00000020: 55cd dabc 49a4 533e d594 6e3e 46ca c63b
00000030: ae8c 01bd 38b0 8cbd e766 f3bd d843 b8bd
00000040: 4947 1fbe 70c0 4e3d 3375 2ebe b068 19be
00000050: 37f7 4ebe 60bf 23be 4ed1 cebd 30c4 30be
00000060: 8cf0 37be 200c 78bd 9da9 88be 88f7 22be
00000070: ef1b 1abc 15f8 943c 9f12 27bd 3fd6 11be
00000080: a6ad 0cbe 5322 5abe f286 e23d 3fe8 4f3e
00000090: dffe d1bd 9b46 6cbe a2c2 2dbd 83a2 ac3e
000000a0: 3924 2c3e af90 89bd 78b2 4fbe b5d8 02ba
000000b0: 673a 5bbe db8b 10be acd6 4ebe 1f2c 16bd
000000c0: 7d46 13be 31ac 88be 063e 6ebe 490c a9bb
000000d0: 2d93 913c 0175 d8bd a4c6 2dbe 3b6a 213e
000000e0: 3c42 1d3d 6fc3 553e 3eea 4d3e 077c 6cbc
000000f0: ddaf 493e 27a7 44bd 0a2d 2a3d d837 983e
00000100: cce3 7b38 ab11 6fbe 9f9f 35be 90af 833e
00000110: 1e93 403d 4abf 3a3e bedf a5be 9431 ddbe
00000120: 81bb a3bd 24aa 4ebe 267b 46bd fe2a 103e
00000130: f148 a7bc 841a 8bbc 479e 55be 0f88 bbbd
00000140: b676 bf3e d019 79be ac2f 48be 2cab 86be
00000150: 64aa afbd 799a 60bd 892c df3c 528a 10be
00000160: c823 6ebe 03ac 98be 800d b2be ea61 acbd
00000170: aff0 063e e882 0ebe 0566 c7be 365e dabe
00000180: f7ac e4bc 23b4 72bd 630b 8d3c c0f9 63be
00000190: 58f6 83be 5b80 d4be 45d9 e0be 89f9 bebe
000001a0: 012c d1be 21f5 97be 98e0 c5bd f537 a5be
000001b0: 84f5 55be dca4 a6be 1194 54be ec34 9dbe
000001c0: 396e adbe 2ef6 53be cf23 c1be 3c1c c2bd
000001d0: 67f0 873d 6a56 373e 80d1 193e 5f6f d4be
000001e0: 0da1 7ebd 4449 6a3e fc79 eb3d a353 033d
000001f0: 68ed 703e 78c0 38be c38a 003e 6325 143d
00000200: 12ec 4fbd cee9 a6be ccb5 0d3d 0b7d 82bd
00000210: 85ce 923d bae1 8bbe d76f d1be eb99 dd3d
00000220: f352 a4be f79e d5be cabf efbe 27a7 04bf
00000230: 5d54 893d dd4b 26bd 2887 35be 5185 fabe
00000240: 5dec 29bf 55f8 18be 5961 82be 76db 6cbe
00000250: 1b60 65bc 7ed4 d6be 9ae8 973d f62a debe
00000260: c283 59be e83e b8be 76eb 01bf 1651 683e
00000270: e485 1ebe edbb 3b3e 60ab 95bd a657 12be
00000280: a3fd 813e 341b 2d3e 0691 1abd 7b13 9dbd
00000290: 2604 ecbc e322 4d3e 3e1e e33d 74f1 bcbd
000002a0: 9791 5cbe d577 d0bc e0c0 3cbe d802 5bbe
000002b0: 42b8 6abe d523 e5bd ddae d03e d16b bcbc
000002c0: 0746 69be 1d39 cf3d c02c 1b3e 16dd 8e3e
000002d0: 6a99 163d 66f7 a3be a329 8b3d 58df 643e
000002e0: c7b3 7cbe 9fff d4bd 127b c7bd d336 813e
000002f0: 8c2c bb3d 5c46 a5be 6452 e23d 37f5 0ebe
00000300: 09b8 693d 9db1 9fbd 0d5e bbbe deb5 623e
00000310: 3da8 3c3e 1e14 903e 83a6 f6bb 2e27 eebe
00000320: 2b11 07bb ebd6 8fbd 2c01 37be 84c4 e938
00000330: 2a2b 693e 2f68 5e3e e419 a7bd 105d 8bbd
00000340: 68ab 74be f668 2e3e d0f6 883e 5443 893d
00000350: d91f 34bc 22ba c1bd 0590 8b3e 84ee e2be
00000360: 4298 8bbe 574b 9bbe 7de1 e1ba df28 8b3e
00000370: 9e41 c4be 2024 9dbe e531 70be 0f07 bfbc
00000380: c6df 393e 4390 113d a6b0 f73d a9a4 86be
00000390: ecf6 bdbd b863 9e3e 6359 11bd 4c4f 39bb
000003a0: b6aa 81be b33b 993c f86c ba3d ccfc 7fbe
000003b0: 7908 e6bd 589a 18be 30c4 a83d 9d24 fcbd
000003c0: c8cc 02be 8ac2 39bd 0bcd 983c 61bd d8bd
000003d0: 96de b3bd b2cd a43d db1a 103d 0a69 263e
000003e0: 9dd8 0fbc 070c f6bd 62cd b0be 806e cbbd
000003f0: b40d 8dbe a61e d1be cbf0 4ebe 226b d5be
0.2786569 0.2000295 0.2938489 0.07753837 0.195079 0.25541273 0.013191733 0.10081749
-0.026709238 0.20668139 0.23298962 0.0060665933 -0.031628303 -0.068695486 -0.118848614 -0.08997315
-0.15554537 0.05047649 -0.17036895 -0.14981341 -0.20211492 -0.15990973 -0.100985155 -0.1726234
-0.17962855 -0.06055844 -0.26691905 -0.15914738 -0.009406074 0.018184701 -0.040789243 -0.14241885
-0.13738117 -0.21302156 0.11060895 0.20303439 -0.10253691 -0.23073809 -0.042421944 0.33717737
0.16810693 -0.06717049 -0.20282924 -0.00049913983 -0.21408997 -0.1411585 -0.20199078 -0.03666317
-0.14382358 -0.26693872 -0.23265848 -0.005158935 0.017770374 -0.10569192 -0.16970307 0.1576318
0.038393244 0.20875333 0.20108888 -0.014433867 0.19695993 -0.04801097 0.04154686 0.29730105
6.0055216e-05 -0.23346584 -0.17736672 0.2571988 0.047015302 0.18237033 -0.32397264 -0.43201888
-0.07994748 -0.20182091 -0.048457287 0.140789 -0.020420523 -0.016980417 -0.2086116 -0.091568105
0.37395257 -0.24326253 -0.19549435 -0.2630247 -0.08577421 -0.054834817 0.027242916 -0.14115265
-0.23255837 -0.29818735 -0.34775925 -0.08417113 0.13177751 -0.13917124 -0.38945022 -0.42650002
-0.027914507 -0.059253823 0.017217344 -0.22263241 -0.25773883 -0.41504177 -0.43915763 -0.37299755
-0.40853885 -0.29679206 -0.096619785 -0.32269254 -0.20894438 -0.32547653 -0.20759608 -0.3070444
-0.33873156 -0.20699379 -0.37722632 -0.094780415 0.0663765 0.17904058 0.15021324 -0.4149122
-0.06216531 0.22879511 0.11497876 0.032062184 0.23528063 -0.18042171 0.12552933 0.036168467
-0.050762244 -0.32600254 0.034597203 -0.06371506 0.07168297 -0.27320653 -0.4090564 0.10820373
-0.32094535 -0.41722843 -0.4682601 -0.51817554 0.06705544 -0.040599693 -0.1772734 -0.48929837
-0.66376287 -0.14938481 -0.25464895 -0.23130593 -0.013999964 -0.41958994 0.07417412 -0.43392152
-0.21241668 -0.35985494 -0.5074991 0.22687182 -0.15480763 0.18333407 -0.07308078 -0.14291248
0.25388822 0.16904908 -0.03773596 -0.07669731 -0.028810572 0.2003284 0.110897526 -0.09225741
-0.21539913 -0.025447765 -0.18432951 -0.21387804 -0.22921851 -0.11188475 0.4075841 -0.02300063
-0.2278062 0.10118315 0.1515379 0.2790305 0.0367674 -0.32024688 0.06795051 0.22350824
-0.24677955 -0.10400318 -0.09740271 0.2523714 0.09139356 -0.32280242 0.11050871 -0.1396073
0.057060275 -0.07797549 -0.36595193 0.2213969 0.18423553 0.28140348 -0.007527174 -0.46514267
-0.0020609598 -0.07023414 -0.17871541 0.0001114691 0.22770372 0.2171943 -0.08159235 -0.0680486
-0.23893511 0.17032227 0.26750803 0.06702295 -0.010993921 -0.0945933 0.27258316 -0.44322598
-0.272646 -0.30330917 -0.0017233338 0.2717962 -0.38331312 -0.30691624 -0.23456533 -0.023318795
0.18151769 0.03553797 0.1209424 -0.262975 -0.09275612 0.30935454 -0.035485636 -0.0028276024
-0.25325555 0.018705225 0.091028154 -0.24998778 -0.11232085 -0.14902627 0.08240545 -0.12311671
-0.1277343 -0.045351543 0.01865246 -0.10582996 -0.08782689 0.08047046 0.03518186 0.16251007
-0.008779672 -0.12014013 -0.34531695 -0.099331856 -0.27549517 -0.40843695 -0.20209043 -0.41683298

bias f4 [20]
00000000: 5c25 c33e 2006 dabe a149 e33c 17d4 83be
00000010: ceff b53d 1181 27bc 0d3d 90be 3186 f33d
00000020: 124c 80be 36ad 07bf 8d3a 963e a55f 1f3e
00000030: 7153 733e 0d39 b9bd 0cd1 733c 88aa 343e
00000040: 1e11 be3d 9224 8b3e 6265 17bf 84f9 ffbd
0.3811444 -0.42582798 0.02774507 -0.2574775 0.088866815 -0.010223643 -0.28171578 0.11890829
-0.25058037 -0.52998674 0.29341546 0.15563829 0.23762299 -0.09044085 0.014881384 0.17643178
0.092806086 0.27176338 -0.5913907 -0.12498763

weight f4 [60, 320]
00000000: fd00 d6bd d0de 673d f1d0 913c 91b3 473d
00000010: 00c7 12be 1656 253d 97cf d1bd c906 05be
00000020: 7ba8 2abd eba8 433d 7f96 253e 6fa4 853d
00000030: d6d4 1abe 5f13 1ebd 2765 babc 84ec 053e
00000040: 44a1 4dbd 90c7 19be bd7a 50be 5168 bbbd
00000050: 177c c93d 51e4 33be 26b7 d7bc c5f3 093e
00000060: a5ea 2b3e 4f86 1fbe fe26 67bd 83f8 e83d
00000070: 3183 643c 3bb0 a9bd f4e3 6abd 9441 b7bd
00000080: 65d1 41be 4087 28be c296 93bc c2ca a9bc
00000090: e497 d73a 3fef de3d 5a8d ed3d a0aa 793d
000000a0: e1cc f1bd 8b04 ad3d 20fd e13d 2a84 fabd
000000b0: b4c5 02be 26fa a9bd 7fbd 00be d552 b8bd
000000c0: 37d7 2d3d 69f6 343d 9c07 7dbc aadf 95bc
000000d0: fa01 833d 6237 6dbd 1369 92bd 1f43 a8bd
000000e0: 33f4 583e 68cf 19bb 73a2 30bd f16d ca3c
000000f0: de5a 4ebc 4075 b3bd 581d 2a3d aee2 b53c
00000100: 46ed 7dbc 6bbf 55be 0626 3cbe 547c 12bd
00000110: 12d8 05bd f3b0 03be 4d67 e23d 69d5 7e3e
00000120: 75e7 f6bd b9cc b83d f9c3 1cbe c100 b1bd
00000130: efda 2bbd db6d fc3d adbf 5e3d 9ac1 1cbb
00000140: 0b4d 83bc ebc9 8cbd cb3b 0f3d 9185 793c
00000150: b5d7 cbbd 1f29 5ebc ed05 a23d 9f05 9c3d
00000160: 9d55 7ebe b966 e1bc f0c6 b5bc 1e7e babc
00000170: 5f1a 8bbd 95fd d9ba d858 7e3d d51a cabc
00000180: 3582 6dbd ce89 313d 7a29 f83d 0066 1abd
00000190: 2335 0bbe d081 0d3c bcc3 01bc da05 bcbb
000001a0: 8547 dabd d94c a5bd d15e 0bbe b8c6 c5bc
000001b0: fde2 8abd 3edc a7bd ac3c 4fbd 08d7 10bc
000001c0: 1140 1f3b 52f3 df3d 5c3a 1f3c 0a10 eb3d
000001d0: 39f4 7a3c 1e17 a6bd 19e7 cebd bdb3 a1bd
000001e0: e8f0 1dbd 61ce b9bb 9a68 ea3d 4eed 633e
000001f0: 161c 823c f129 5c3d f288 68bc 02ac a7bd
00000200: 158b 3fbd af70 7fbe 286f 45bd c75e 06be
00000210: 173b debd 8552 cfbd a91c 153e b14f e7b9
00000220: 22e5 32bd d853 f4bc 7532 6fbd 2d60 0ebe
00000230: 2ee7 f93d 0a3c 1abd ae40 a9bd 2ca6 00bd
00000240: 362b 863c 661a 0b3e a55c 94bd 66c7 e7bc
00000250: 7618 d1bc ab40 663d 86d5 07bd 28a6 cdbc
00000260: e4d6 ad3d 6c04 633d 1161 31be 3223 89bd
00000270: d53f 53be 9c27 65be c775 3abd 6b6d abbc
00000280: 5245 23be 7241 8fbd 30e8 033e c604 0fbd
00000290: 7d72 6bbd 1d5e a9bc 7e16 12bc 54b6 6abe
000002a0: 93a5 3bbd b208 b33c 7ffa 26bd 07e5 833e
000002b0: 6879 d53c 34dc 07be b3ed 44bd 6fe3 d43d
000002c0: 0c27 34be 1bab 8bbd b848 ecbd 09f6 133d
000002d0: 81af 11be 5c38 c2bc 54b9 a9bc 3220 02be
000002e0: 4d3b edbc 7200 9cbd 5e2b f03d a237 f43a
000002f0: 2cc4 4339 ac0e c2bd c251 e5bd a89e 63bd
00000300: 86a2 09be 06d5 8abc 3fb7 cb3d d108 a13d
00000310: 15bc 75be 0468 6f3d 7f82 e1bc 09de 3cbe
00000320: 16e0 2bbe cf41 27be c628 7dbd d2da a33d
00000330: 387b dfbd 3079 5bbd 1f7f 39bd 2506 c2bd
00000340: ed20 b0bd 7b99 6e3d 7c08 8dbd a916 f3bd
00000350: 8da2 b73d 404d 573d f66d adbd d9c3 2ebd
00000360: d819 c6bd e774 b83d b620 97bc 17b4 123b
00000370: 2768 f6bd a7ab f93b 32d9 bcbc b737 05be
00000380: 7678 95bd 0cc3 ee3d ddfc 76bd 7dc7 97bc
00000390: c46c 5c3b 5818 1c3b b75a 9fbd d9f2 bebc
000003a0: 84ce 94bb 1e4b b9bd 02df febd 2a44 4ebe
000003b0: c4a0 1cbc d2e3 723d c3d7 343e b481 e03d
000003c0: ecec b0bd b0c2 d33c 006d d53d 7b1b a53e
000003d0: bcd0 613b 3045 43bd db88 283e 8145 19bd
000003e0: 0659 983c 99c7 02bd 273b 9fbd bad3 39bc
000003f0: 561e 03be 1a45 6fbd ee8e 7ebd 1ca7 c9bc
-0.10449407 0.056608975 0.017799826 0.048755232 -0.14333725 0.0403653 -0.10244673 -0.1299087
-0.04166458 0.047768515 0.16170691 0.06525504 -0.15120253 -0.038592692 -0.022753311 0.13078505
-0.050202623 -0.15017533 -0.20359321 -0.09150756 0.098381214 -0.17567565 -0.02633245 0.13471897
0.16788729 -0.15578578 -0.05643367 0.11375525 0.013947294 -0.082855664 -0.0573463 -0.08948055
-0.18927534 -0.16457844 -0.018016223 -0.020726565 0.0016448465 0.10885476 0.11599226 0.060953736
-0.11806656 0.08448132 0.11034608 -0.122322395 -0.1277073 -0.08299665 -0.12572287 -0.09000174
0.042441573 0.044180308 -0.015443709 -0.018295128 0.063968614 -0.057914145 -0.071489476 -0.08215927
0.21186905 -0.002346957 -0.043123674 0.024710627 -0.012594907 -0.08762598 0.04153189 0.022202816
-0.015498465 -0.20873801 -0.1837388 -0.0357631 -0.032676764 -0.1286047 0.11054859 0.24886097
-0.12055866 0.09023423 -0.15309133 -0.08642722 -0.04195684 0.12325641 0.054382015 -0.0023919106
-0.016027948 -0.0687445 0.034969132 0.015229599 -0.09953252 -0.013559609 0.079112865 0.0761826
-0.24837346 -0.027514802 -0.022189587 -0.022765215 -0.06792139 -0.001663136 0.062096447 -0.024670998
-0.057985503 0.04334431 0.12117286 -0.03769493 -0.13594489 0.008636907 -0.007920202 -0.0057380022
-0.106581725 -0.08071298 -0.13610388 -0.024142608 -0.06781576 -0.08196305 -0.05059497 -0.00884033
0.002429966 0.109350815 0.009718504 0.114776686 0.015317016 -0.08109878 -0.10102672 -0.078956105
-0.038559824 -0.0056703542 0.114457324 0.22258493 0.015882533 0.053750936 -0.014192807 -0.08187105
-0.0467635 -0.24945329 -0.04820171 -0.13122092 -0.10851114 -0.10123161 0.14561714 -0.00044119128
-0.04367555 -0.029825136 -0.05839773 -0.13903876 0.12202297 -0.037654914 -0.0826429 -0.031408474
0.016378026 0.13584289 -0.07244233 -0.028293323 -0.02552436 0.056214016 -0.033162616 -0.025103644
0.08488253 0.05542414 -0.17322184 -0.06696166 -0.20629819 -0.22378391 -0.045522477 -0.020926198
-0.15944412 -0.069949046 0.12881541 -0.03491666 -0.05748223 -0.02067476 -0.008916495 -0.22921115
-0.0458122 0.021854732 -0.040766235 0.25760671 0.026058868 -0.13267595 -0.04807825 0.10394942
-0.1759302 -0.06819745 -0.115373075 0.03612331 -0.14227106 -0.023708515 -0.020718254 -0.12707594
-0.02895894 -0.076172724 0.11727022 0.0018632303 0.00018669729 -0.09475455 -0.11197235 -0.05557123
-0.13440904 -0.01694728 0.09947061 0.0786301 -0.23997529 0.058448806 -0.027528046 -0.18444075
-0.16784701 -0.16333698 -0.061806463 0.08000721 -0.10912174 -0.05358237 -0.045287248 -0.09473828
-0.0860003 0.05825184 -0.06886384 -0.118695565 0.08966551 0.052563906 -0.08468239 -0.042667244
-0.09672898 0.09006672 -0.018448215 0.0022385174 -0.12031584 0.0076193395 -0.023052786 -0.13009535
-0.07298367 0.11658296 -0.060299743 -0.01852774 0.0033634165 0.002381822 -0.07780974 -0.023309158
-0.00454122 -0.090475306 -0.12444879 -0.2014319 -0.009559814 0.059299298 0.17660432 0.10962239
-0.08638939 0.02584967 0.10421181 0.32247528 0.003445669 -0.047673404 0.16458456 -0.0374198
0.018597137 -0.031928632 -0.07774954 -0.011341983 -0.12804541 -0.05841551 -0.062148027 -0.024615817

bias f4 [60]
00000000: 4eb5 b03c ff00 5a3e bea0 fc3d eda6 dbbd
00000010: 0b10 7cbc 234e 073e 7edd bbbd ff07 90be
00000020: a751 403e f1a8 41bd 49e3 fe3d 5913 783e
00000030: 8498 eb3c 59b6 653e e6a6 24bb de17 063d
00000040: 2c63 343f a7b8 093d fdd7 b03e 1115 dfbd
00000050: cc5f 663c 5154 7dbd 8643 3f3e effa 4bbc
00000060: 2cfe c8bd 2548 02ba fe6f 8c3d 21a2 313f
00000070: 6f81 443e 4462 9f3d 8b22 ac3d 6d4a 9ebd
00000080: 2910 383d e955 82bd a078 263e 8ee5 adbc
00000090: 3561 83bb 8b28 043d 1606 f23e 513e 5ebe
000000a0: 0d5a 663d a5b4 6a3d 26f6 51be 9c36 553d
000000b0: 9a8a 79bd be58 c7bd 4271 573e e47e 353e
000000c0: 6718 9abc 16df ef3c 191d 98bc 171d 593b
000000d0: 3c0c 2dbc 352f 86bd 02cd c73e d5d8 73bd
000000e0: e7a6 0ebd 473b a1bc 79be e0bd 25ab af3e
0.021570828 0.21289442 0.12335347 -0.10725198 -0.015384684 0.132134 -0.09173106 -0.281311
0.18781148 -0.047280256 0.12445695 0.2422613 0.028759249 0.22432841 -0.0025123893 0.032737605
0.70463824 0.033623364 0.34539786 -0.1089269 0.014060926 -0.06184799 0.18678102 -0.012449964
-0.098141044 -0.0004969857 0.06857298 0.69388014 0.1919 0.077824146 0.08405026 -0.07729039
0.044937287 -0.06364042 0.16256952 -0.021227624 -0.0040093907 0.032265227 0.47270268 -0.2170346
0.056238223 0.057301182 -0.20504054 0.052054033 -0.060923196 -0.09733723 0.21039298 0.17724186
-0.018810464 0.02928118 -0.018568562 0.003312891 -0.010561999 -0.06551973 0.39023596 -0.05953296
-0.03482714 -0.019681586 -0.1097383 0.3431026

weight f4 [10, 60]
00000000: 844d df3c b445 e53e 794a a6be 56a0 d7bc
00000010: 5834 f43d 1a82 5e3e 3d05 8bbd c528 823c
00000020: c30b 8c3e 3b2a a1be 9c67 403e 912c 6bbe
00000030: 33a0 43be d9ab 86bd 65d4 763e 8ead 3dbe
00000040: 0e7a e1bd 0e7d f9be 44ae 29be ecd6 3fbe
00000050: 8e84 b53e 9124 a7bd 6bfc ee3d 13fb eb3d
00000060: c58f 02be 5a8e 5bbd 61ab 493d 78cc 32be
00000070: 0895 8fbe 584e b3be d033 a83e 694e 55be
00000080: 8035 c33d 7e7d 0dbe c46c ecbe 8a24 a83b
00000090: 2c79 5ebe c5d9 49be 07c3 01be 9133 95be
000000a0: b26d 703e 4db4 ae3c ad79 c5bc a887 35be
000000b0: bb4d 0d3e 489a 9b3c ecba 2c3d 99eb 5abb
000000c0: 94fc 6a3e d891 b6be 1aba a5bd ec18 d8bd
000000d0: c0a8 e5bd b693 3fba 163a eabe a9a6 9d3e
000000e0: 11e2 963e 36f3 8a3e 296f 36be 6ec8 fe3e
000000f0: f13f 1ebe 6e72 a2be ddc3 b13d 0e53 57be
00000100: d58b 47be 2e96 87be 3422 78be 72cb c8be
00000110: 085a f63d ff45 e8bd 299f 8fbe 03c0 b6bd
00000120: 3ecc 6cbe 832c d53d b6fb dbbe bfc9 8bbe
00000130: c327 e33e 85c5 68bd d140 e03e dd50 bcbd
00000140: f7fc a6be a698 443b efe0 683e fe37 cc3b
00000150: ca64 92be b545 efbd e194 b8bc cc0d fc3e
00000160: 17ef 013f ae8a 68be a74d aabe e43a 99be
00000170: fb3f 3cbe 8b3e 4bbe 4e4f 2e3e c068 07be
00000180: 64f8 17be 66cd 64be 94e6 c03c 0e15 b1bd
00000190: 9873 393d c834 85be 30dc 08be 2b2a f8bc
000001a0: 713c 39be 5808 5b3d 0dd2 553e fcf9 7bbe
000001b0: 3098 24be 1894 c03d ff84 833d f575 85be
000001c0: c98c 0f3e dd87 c6be 86e2 b23e 37c5 e8bd
000001d0: 1e25 18be 6afb 52bc 3dc2 56be ad9c 41bd
000001e0: acd1 423d e5ec 6cbc 6c08 c63e 09a2 0fbe
000001f0: 84f9 be3d 239d 803e 7872 193e b783 1fbe
00000200: 3e63 f93d 1af1 0b3e 37bc 18be dee5 a93c
00000210: a54e 203e cec2 ecbd c732 3dbe 0957 973e
00000220: 6625 c6bd 3a65 1ebe e7df 0d3e afce 7abe
00000230: 33f4 a4bd 64c5 153e 03bf 983d d1cf 2cbd
00000240: 36ed d53c 8b24 77bd 89b4 02be 3a9c a7bd
00000250: 2b1f 8d3d a9f9 10be b1bd 86be 5b84 c13c
00000260: b108 b4bd 1f49 e2bd d674 4f3c 5e68 58bc
00000270: 29d4 0d3f 2874 f9bd 5dfc c93d 001c e43c
00000280: bca8 263f f7f6 debc ff6c ca3d faab 7cbe
00000290: 5001 ca3e b54c 693e fc14 233e 1f0e 663e
000002a0: 52d2 2b3d 159c 5b3e 5195 093e 0894 87be
000002b0: fe12 0e3f b37b 193e a23e 8f3b a365 a43e
000002c0: f51f acbb c87d 1d3c 6366 9cbc 9b8d 6cbd
000002d0: 68d3 b93e 9ae0 b43d 1ebc 283c 680c 3b3d
000002e0: 6b06 d7bd ebff 893e 850b 093f a8fd 083d
000002f0: ba08 b3bd 51a3 a53c 62bd 13be 34a1 29be
00000300: cc1b 963e f49a d5bc e693 3bbc ee34 163e
00000310: 1300 8dbe 6157 abbe a5be 79bd abf7 b83e
00000320: ad01 3f3d 9f62 203e 2960 1abe 102a 43be
00000330: bcc9 843d d820 ca3d c403 8cbe 35f5 54be
00000340: 691b 563e 1eb4 933b d2dc 41be ce44 80bd
00000350: a8ae 4ebd 00c8 4fbe 1096 0f3e 9a95 56be
00000360: 8b55 033e bb1e e53e 4385 513e 948f 213c
00000370: c868 30be 0bbf 743e 65eb 133e 01db 9d3e
00000380: 1472 553e bf25 0e3e 1715 1abe f8ae 10be
00000390: 7c43 45bb 09a6 903e f98c 04bd 620f 533e
000003a0: 4733 8f3e a405 423d 1f56 0f3e b7a4 663d
000003b0: cc81 3d3d 061c 383e cb79 b53d 9f56 0dbe
000003c0: 7c7b 09bd 165c 273d bda8 ae3a fde0 2c3e
000003d0: 060e a7bd 1f1f c4be 99f4 eebe b7ea a2bc
000003e0: 4da7 9cbe 937f 123e c90b 83be e242 d33e
000003f0: cc79 e4bd 37df 8bbd 38cb 74bd 0b8c ee3c
0.027258642 0.44779742 -0.32478693 -0.026321571 0.11924046 0.21729317 -0.067881085 0.015888581
0.27352723 -0.31477532 0.18789524 -0.2296622 -0.1910408 -0.06575746 0.2410446 -0.18523237
-0.11009608 -0.48728222 -0.16570383 -0.1873433 0.35452694 -0.08161271 0.11669239 0.11522498
-0.12750156 -0.053602554 0.049235705 -0.17460811 -0.2804339 -0.3502071 0.3285203 -0.20830692
0.09531689 -0.13817403 -0.46176732 0.005131309 -0.21725911 -0.19711979 -0.12672053 -0.29140905
0.23479345 0.021326208 -0.024105871 -0.1772753 0.13799183 0.018994465 0.04217045 -0.0033404587
0.22947913 -0.35658145 -0.08092137 -0.105516285 -0.11213827 -0.00073080824 -0.4574744 0.30791214
0.2946935 0.2713868 -0.17815842 0.4976229 -0.15454079 -0.31727928 0.08679936 -0.21027777
-0.19486935 -0.26481766 -0.24231797 -0.39217716 0.12028891 -0.11341476 -0.28051117 -0.08923342
-0.23124787 0.104088806 -0.42965478 -0.27302358 0.44366273 -0.056828994 0.4379945 -0.09195111
-0.32614872 0.0029998212 0.22742055 0.0062322607 -0.2859252 -0.116832174 -0.022531928 0.49229276
0.5075545 -0.22709152 -0.3326237 -0.29927742 -0.18383782 -0.19848077 0.1702244 -0.13223553
-0.14840847 -0.22343978 0.023547448 -0.08646594 0.045276254 -0.2601683 -0.13365245 -0.030293545
-0.18089463 0.053474754 0.2088091 -0.2460708 -0.1607368 0.09403247 0.06421851 -0.26066557
0.14018549 -0.3877553 0.3493845 -0.11365741 -0.14857909 -0.012877325 -0.20972534 -0.04726856
0.04756324 -0.014460777 0.386783 -0.14026655 0.09324935 0.25119886 0.14985073 -0.15577589
0.12177132 0.13666192 -0.14915548 0.020739492 0.15655 -0.115605935 -0.18476401 0.2955859
-0.09675102 -0.15468302 0.13854943 -0.24492906 -0.0805439 0.1462608 0.074583076 -0.042190377
0.026114088 -0.060337584 -0.12764181 -0.08184095 0.068907104 -0.14157738 -0.26316598 0.023622682
-0.0879072 -0.11049103 0.012662133 -0.013208477 0.55401856 -0.12180358 0.098625876 0.027845383
0.6510122 -0.027217371 0.098840706 -0.24674979 0.39454126 0.22783168 0.15925974 0.22466324
0.041948624 0.2144626 0.13435866 -0.26480126 0.5549773 0.14988594 0.00437148 0.32108793
-0.005252833 0.009612508 -0.01909179 -0.057752233 0.36294103 0.08831902 0.010298757 0.04566613
-0.10499271 0.26953062 0.535332 0.03344503 -0.08741899 0.020219477 -0.14427713 -0.165654
0.29318082 -0.026074864 -0.011448836 0.14668629 -0.2753912 -0.33465102 -0.06097283 0.36126456
0.046632458 0.15662621 -0.15075745 -0.19059014 0.0648379 0.09869546 -0.27346623 -0.20796664
0.20908894 0.0045075556 -0.18931893 -0.062631235 -0.050459534 -0.20291138 0.14022088 -0.20955506
0.12825601 0.44750008 0.20460992 0.009860892 -0.17227471 0.23901002 0.14445265 0.3083115
0.20844299 0.13881586 -0.15047108 -0.14129245 -0.0030100038 0.28251675 -0.032361005 0.20611337
0.2796881 0.04736866 0.13997696 0.056309428 0.046266362 0.1797944 0.08861121 -0.13802575
-0.03356503 0.040859304 0.0013325434 0.16882701 -0.08156972 -0.38304994 -0.46670988 -0.019887311
-0.3059639 0.14306478 -0.2559493 0.41261965 -0.111560434 -0.06829684 -0.059764117 0.029119512

bias f4 [10]
00000000: 44ef 653e f57d 6d3f 0780 f0be 70b2 1abd
00000010: 457f 7b3d 76ce efbe f7d7 0fbf 5809 0abe
00000020: edf5 b53e f29e adbd
0.22454554 0.9277032 -0.46972677 -0.037767828 0.06140067 -0.46837205 -0.5618891 -0.13480127
0.3553919 -0.08477582
