meinNetz.pt (torch, 3800 bytes, 4 tensors)

weight f4 [10, 10]
00000000: 9b18 59be 80be a13b d22e 223e f2b7 3d3e
00000010: 6750 99be b5da 7cbe 9ebc 0dbe 9fc6 96be
00000020: 5a35 78be 89a9 8ebe 4884 bbbd 96f0 4e3e
00000030: aa7b e4bd 5f61 33be 80d3 f83c 6019 83be
00000040: be49 7f3e ec41 97be b4c4 88be 42bb 213e
00000050: 7a4e 89bd b08a 2dbd be41 1d3e 28f6 c33d
00000060: 1b59 893e d1c7 923e d8c5 dc3d 0461 96be
00000070: f667 1e3e beae 71be 5f61 343e 6895 983d
00000080: c083 d03c 3c7f b33d b179 37bd ca83 033e
00000090: 0b2e a13e 78f4 abbd 2fc9 7fbd ef4a 0d3d
000000a0: f59f 843e 3695 7ebe 3a16 4d3e 3356 1cbe
000000b0: 05d1 9ebe e035 a23c e88e 3a3d 00ad 9f3a
000000c0: f46c 9ebe d8f2 79bd d136 193e 80ae c8bc
000000d0: dda4 973e 9346 17be c1b3 6fbe e0f7 323d
000000e0: e7fd 04be 8285 4bbe 354b 433e c2ba 9bbc
000000f0: c642 a13e e286 593e 4ec3 84be 0078 1b3a
00000100: aaed f53e a0fc b1bc 586c 373d 9188 88be
00000110: 1874 e83e 1504 983e f502 5fbe bfb8 41be
00000120: 7a4e 38be ae98 16be 5b47 213e 2c2c 83be
00000130: 8ec9 aabd b870 47bd 0601 e93d 848c b73d
00000140: adeb 363e 40ec b73c d248 5c3e 3c80 c2bd
00000150: 8948 c43e 6429 ae3d 78c0 d23d 458f 9e3e
00000160: 2a43 15bd fcc7 bd3c 4449 87be 00a4 7fbc
00000170: 96ca cbbd a10c 95be 0011 9bba 3858 1b3e
00000180: b596 9dbe 225d 62be 7075 e13d d283 683e
-0.21200792 0.0049360394 0.15838173 0.18527201 -0.29944155 -0.24692805 -0.13841483 -0.2944841
-0.24239102 -0.2786372 -0.0915609 0.20208964 -0.111563995 -0.17517613 0.030374289 -0.25605297
0.24930474 -0.29542482 -0.26712573 0.1579409 -0.06704421 -0.04236859 0.1535711 0.09568435
0.26825795 0.28668073 0.10779923 -0.29370892 0.15469345 -0.23601815 0.17615269 0.07450372
0.025453448 0.087645024 -0.04479379 0.12843242 0.3148044 -0.08396238 -0.062447723 0.03449529
0.25903288 -0.24861607 0.2002801 -0.15267257 -0.31018844 0.01980108 0.045546442 0.0012182295
-0.309425 -0.06102261 0.14962317 -0.02449727 0.29617968 -0.14773016 -0.23408414 0.043693423
-0.12987481 -0.19875148 0.19071658 -0.019009952 0.31496257 0.2124286 -0.25930256 0.0005930662
0.48032886 -0.021726906 0.04478106 -0.26666692 0.45401073 0.29690614 -0.21778472 -0.18918131
-0.17998686 -0.1470668 0.15749876 -0.25619638 -0.08339225 -0.04869148 0.11377148 0.08962348
0.1786334 0.02245152 0.21512154 -0.09497115 0.3833659 0.085039884 0.10290617 0.3096868
-0.036441006 0.023166649 -0.26423085 -0.0156030655 -0.099507496 -0.29111198 -0.0011830628 0.15170372
-0.30779043 -0.2210584 0.110087276 0.22706535

bias f4 [10]
00000000: b35b 863e c0c4 de3b db1d 36be d9b6 6e3e
00000010: 5696 5ebe 6df6 c83b 541e 823e 3ec3 13be
00000020: be33 a73e 6d09 97be
0.26241836 0.006798357 -0.17784826 0.23311938 -0.21737036 0.006132892 0.25413764 -0.14429948
0.32656664 -0.2949938

weight f4 [10, 10]
00000000: c8a2 16bd 14e6 f53d b0a4 bd3d cbde 9d3e
00000010: 393d 6dbe b88e 5fbe a65e 72be facc dcbd
00000020: b7b7 953e 3399 2abe d9c6 843e ba78 773e
00000030: 1450 82be 6ee7 22be e81f 7d3d 069e c5bd
00000040: d7fb e23e a623 a13d 4656 983e 081b e93d
00000050: e0ae b53c 80ee f93d b028 4a3d 8f99 4ebe
00000060: 50ac ba3d 224b 3dbe 14b1 453e 33b5 333e
00000070: 54cd af3e 41a5 9e3e 1a3d 403e e256 5b3e
00000080: 0a90 783e 3628 b63e 40a6 c3bb c944 d1bd
00000090: 14b9 d73e a490 413e 70b7 823e b997 8d3e
000000a0: 691d 85be cc1a a0bd aca0 363e 4d8f 8e3e
000000b0: a090 833c 3f75 093e d586 a23d c32c 813d
000000c0: 5f69 46bc c843 e23d 3edb 513e 0a89 673e
000000d0: c09d 78bd e958 2a3e 7ca0 5bbe 4ef8 703c
000000e0: 0624 ac3e e2b2 6bbe 622f 463e fbc1 883e
000000f0: a482 64be 411c a1be 6d93 91be 9f6f 0cbe
00000100: 002c 2e3a 9323 533e 3b3f 093f fdcf 83be
00000110: d920 87bd 6e52 4a3e f68b 593e c28d 9cbe
00000120: 4c09 f63d df15 bcbb c4e9 923d e501 a23e
00000130: 88ad 2f3e bd12 683d 80f5 903e 3c2f 353e
00000140: 939f 873e a935 6bbe cf39 34be d177 653e
00000150: 10cf 80bd c456 8abe 3e2f 98bd 82a9 81be
00000160: be08 0f3e 159f 87be 7828 9dbe eeea 693e
00000170: 165d 5e3e 65f7 773e 8b68 88be ac52 af3c
00000180: 1750 92bd bf36 903e b0b5 20be 24c4 29be
-0.036776334 0.120067745 0.09259927 0.3083404 -0.23167886 -0.21831787 -0.23668918 -0.10781284
0.29241726 -0.16660003 0.2593296 0.24167147 -0.2545172 -0.15908596 0.061798006 -0.09649281
0.44332764 0.078681275 0.2975332 0.11382109 0.022178113 0.122036934 0.04935521 -0.20175765
0.09114897 -0.18485692 0.19305831 0.17549591 0.3433634 0.30985454 0.18773308 0.21419862
0.24273697 0.35577554 -0.0059707463 -0.10218198 0.4213339 0.18902832 0.25530577 0.27654818
-0.25999 -0.07817611 0.17834729 0.27843705 0.016060174 0.13423632 0.079358734 0.06307366
-0.012110083 0.110480845 0.2049379 0.2261087 -0.060697317 0.16635479 -0.21447939 0.014707638
0.33621234 -0.23017457 0.19354013 0.26710495 -0.2231546 -0.3146687 -0.2843279 -0.13714455
0.000664413 0.20619039 0.5361211 -0.2574462 -0.06598062 0.19758007 0.21244797 -0.30576903
0.12013492 -0.005739912 0.071734935 0.3164207 0.1715604 0.056658495 0.28312302 0.176938
0.26488933 -0.22969688 -0.17600177 0.22408988 -0.06289494 -0.27019322 -0.07430886 -0.25324637
0.13968179 -0.26488557 -0.30694938 0.22843525 0.21715197 0.24215467 -0.2664226 0.021401726
-0.07144182 0.28166768 -0.15694308 -0.16578728

bias f4 [10]
00000000: fbb9 b13d d0f5 823b 07c0 df3e c2c1 bcbd
00000010: 8e37 74be 71f3 2b3e aa8e f43d 9dd5 d43e
00000020: 1e74 1ebd bcd4 3a3e
0.08678051 0.0039965883 0.43701193 -0.09216644 -0.23849317 0.16792084 0.119412735 0.41569224
-0.038684957 0.18245214
